…
            "__________________________________________________________________________________________________\n",
            "Layer (type)                    Output Shape         Param #     Connected to                     \n",
            "==================================================================================================\n",
            "input_1 (InputLayer)            [(None, 64, 64, 3)]  0                                            \n",
            "__________________________________________________________________________________________________\n",
            "rescaling (Rescaling)           (None, 64, 64, 3)    0           input_1[0][0]                    \n",
            "__________________________________________________________________________________________________\n",
            "normalization (Normalization)   (None, 64, 64, 3)    7           rescaling[0][0]                  \n",
            "__________________________________________________________________________________________________\n",
            "stem_conv_pad (ZeroPadding2D)   (None, 65, 65, 3)    0           normalization[0][0]              \n",
            "__________________________________________________________________________________________________\n",
            "stem_conv (Conv2D)              (None, 32, 32, 32)   864         stem_conv_pad[0][0]              \n",
            "__________________________________________________________________________________________________\n",
            "stem_bn (BatchNormalization)    (None, 32, 32, 32)   128         stem_conv[0][0]                  \n",
            "__________________________________________________________________________________________________\n",
            "stem_activation (Activation)    (None, 32, 32, 32)   0           stem_bn[0][0]                    \n",
            "__________________________________________________________________________________________________\n",
            "block1a_dwconv (DepthwiseConv2D (None, 32, 32, 32)   288         stem_activation[0][0]            \n",
            "__________________________________________________________________________________________________\n",
            "block1a_bn (BatchNormalization) (None, 32, 32, 32)   128         block1a_dwconv[0][0]             \n",
            "__________________________________________________________________________________________________\n",
            "block1a_activation (Activation) (None, 32, 32, 32)   0           block1a_bn[0][0]                 \n",
            "__________________________________________________________________________________________________\n",
            "block1a_se_squeeze (GlobalAvera (None, 32)           0           block1a_activation[0][0]         \n",
            "__________________________________________________________________________________________________\n",
            "block1a_se_reshape (Reshape)    (None, 1, 1, 32)     0           block1a_se_squeeze[0][0]         \n",
            "__________________________________________________________________________________________________\n",
            "block1a_se_reduce (Conv2D)      (None, 1, 1, 8)      264         block1a_se_reshape[0][0]         \n",
            "__________________________________________________________________________________________________\n",
            "block1a_se_expand (Conv2D)      (None, 1, 1, 32)     288         block1a_se_reduce[0][0]          \n",
            "__________________________________________________________________________________________________\n",
            "block1a_se_excite (Multiply)    (None, 32, 32, 32)   0           block1a_activation[0][0]         \n",
            "                                                                 block1a_se_expand[0][0]          \n",
            "__________________________________________________________________________________________________\n",
            "block1a_project_conv (Conv2D)   (None, 32, 32, 16)   512         block1a_se_excite[0][0]          \n",
            "__________________________________________________________________________________________________\n",
            "block1a_project_bn (BatchNormal (None, 32, 32, 16)   64          block1a_project_conv[0][0]       \n",
            "__________________________________________________________________________________________________\n",
            "block2a_expand_conv (Conv2D)    (None, 32, 32, 96)   1536        block1a_project_bn[0][0]         \n",
            "__________________________________________________________________________________________________\n",
            "block2a_expand_bn (BatchNormali (None, 32, 32, 96)   384         block2a_expand_conv[0][0]        \n",
            "__________________________________________________________________________________________________\n",
            "block2a_expand_activation (Acti (None, 32, 32, 96)   0           block2a_expand_bn[0][0]          \n",
            "__________________________________________________________________________________________________\n",
            "block2a_dwconv_pad (ZeroPadding (None, 33, 33, 96)   0           block2a_expand_activation[0][0]  \n",
            "__________________________________________________________________________________________________\n",
            "block2a_dwconv (DepthwiseConv2D (None, 16, 16, 96)   864         block2a_dwconv_pad[0][0]         \n",
            "__________________________________________________________________________________________________\n",
            "block2a_bn (BatchNormalization) (None, 16, 16, 96)   384         block2a_dwconv[0][0]             \n",
            "__________________________________________________________________________________________________\n",
            "block2a_activation (Activation) (None, 16, 16, 96)   0           block2a_bn[0][0]                 \n",
            "__________________________________________________________________________________________________\n",
            "block2a_se_squeeze (GlobalAvera (None, 96)           0           block2a_activation[0][0]         \n",
            "__________________________________________________________________________________________________\n",
            "block2a_se_reshape (Reshape)    (None, 1, 1, 96)     0           block2a_se_squeeze[0][0]         \n",
            "__________________________________________________________________________________________________\n",
            "block2a_se_reduce (Conv2D)      (None, 1, 1, 4)      388         block2a_se_reshape[0][0]         \n",
            "__________________________________________________________________________________________________\n",
            "block2a_se_expand (Conv2D)      (None, 1, 1, 96)     480         block2a_se_reduce[0][0]          \n",
            "__________________________________________________________________________________________________\n",
            "block2a_se_excite (Multiply)    (None, 16, 16, 96)   0           block2a_activation[0][0]         \n",
            "                                                                 block2a_se_expand[0][0]          \n",
            "__________________________________________________________________________________________________\n",
            "block2a_project_conv (Conv2D)   (None, 16, 16, 24)   2304        block2a_se_excite[0][0]          \n",
            "__________________________________________________________________________________________________\n",
            "block2a_project_bn (BatchNormal (None, 16, 16, 24)   96          block2a_project_conv[0][0]       \n",
            "__________________________________________________________________________________________________\n",
            "block2b_expand_conv (Conv2D)    (None, 16, 16, 144)  3456        block2a_project_bn[0][0]         \n",
            "__________________________________________________________________________________________________\n",
            "block2b_expand_bn (BatchNormali (None, 16, 16, 144)  576         block2b_expand_conv[0][0]        \n",
            "__________________________________________________________________________________________________\n",
            "block2b_expand_activation (Acti (None, 16, 16, 144)  0           block2b_expand_bn[0][0]          \n",
            "__________________________________________________________________________________________________\n",
            "block2b_dwconv (DepthwiseConv2D (None, 16, 16, 144)  1296        block2b_expand_activation[0][0]  \n",
            "__________________________________________________________________________________________________\n",
            "block2b_bn (BatchNormalization) (None, 16, 16, 144)  576         block2b_dwconv[0][0]             \n",
            "__________________________________________________________________________________________________\n",
            "block2b_activation (Activation) (None, 16, 16, 144)  0           block2b_bn[0][0]                 \n",
            "__________________________________________________________________________________________________\n",
            "block2b_se_squeeze (GlobalAvera (None, 144)          0           block2b_activation[0][0]         \n",
            "__________________________________________________________________________________________________\n",
            "block2b_se_reshape (Reshape)    (None, 1, 1, 144)    0           block2b_se_squeeze[0][0]         \n",
            "__________________________________________________________________________________________________\n",
            "block2b_se_reduce (Conv2D)      (None, 1, 1, 6)      870         block2b_se_reshape[0][0]         \n",
            "__________________________________________________________________________________________________\n",
            "block2b_se_expand (Conv2D)      (None, 1, 1, 144)    1008        block2b_se_reduce[0][0]          \n",
            "__________________________________________________________________________________________________\n",
            "block2b_se_excite (Multiply)    (None, 16, 16, 144)  0           block2b_activation[0][0]         \n",
            "                                                                 block2b_se_expand[0][0]          \n",
            "__________________________________________________________________________________________________\n",
            "block2b_project_conv (Conv2D)   (None, 16, 16, 24)   3456        block2b_se_excite[0][0]          \n",
            "__________________________________________________________________________________________________\n",
            "block2b_project_bn (BatchNormal (None, 16, 16, 24)   96          block2b_project_conv[0][0]       \n",
            "__________________________________________________________________________________________________\n",
            "block2b_drop (Dropout)          (None, 16, 16, 24)   0           block2b_project_bn[0][0]         \n",
            "__________________________________________________________________________________________________\n",
            "block2b_add (Add)               (None, 16, 16, 24)   0           block2b_drop[0][0]               \n",
            "                                                                 block2a_project_bn[0][0]         \n",
            "__________________________________________________________________________________________________\n",
            "block3a_expand_conv (Conv2D)    (None, 16, 16, 144)  3456        block2b_add[0][0]                \n",
            "__________________________________________________________________________________________________\n",
            "block3a_expand_bn (BatchNormali (None, 16, 16, 144)  576         block3a_expand_conv[0][0]        \n",
            "__________________________________________________________________________________________________\n",
            "block3a_expand_activation (Acti (None, 16, 16, 144)  0           block3a_expand_bn[0][0]          \n",
            "__________________________________________________________________________________________________\n",
            "block3a_dwconv_pad (ZeroPadding (None, 19, 19, 144)  0           block3a_expand_activation[0][0]  \n",
            "__________________________________________________________________________________________________\n",
            "block3a_dwconv (DepthwiseConv2D (None, 8, 8, 144)    3600        block3a_dwconv_pad[0][0]         \n",
            "__________________________________________________________________________________________________\n",
            "block3a_bn (BatchNormalization) (None, 8, 8, 144)    576         block3a_dwconv[0][0]             \n",
            "__________________________________________________________________________________________________\n",
            "block3a_activation (Activation) (None, 8, 8, 144)    0           block3a_bn[0][0]                 \n",
            "__________________________________________________________________________________________________\n",
            "block3a_se_squeeze (GlobalAvera (None, 144)          0           block3a_activation[0][0]         \n",
            "__________________________________________________________________________________________________\n",
            "block3a_se_reshape (Reshape)    (None, 1, 1, 144)    0           block3a_se_squeeze[0][0]         \n",
            "__________________________________________________________________________________________________\n",
            "block3a_se_reduce (Conv2D)      (None, 1, 1, 6)      870         block3a_se_reshape[0][0]         \n",
            "__________________________________________________________________________________________________\n",
            "block3a_se_expand (Conv2D)      (None, 1, 1, 144)    1008        block3a_se_reduce[0][0]          \n",
            "__________________________________________________________________________________________________\n",
            "block3a_se_excite (Multiply)    (None, 8, 8, 144)    0           block3a_activation[0][0]         \n",
            "                                                                 block3a_se_expand[0][0]          \n",
            "__________________________________________________________________________________________________\n",
            "block3a_project_conv (Conv2D)   (None, 8, 8, 40)     5760        block3a_se_excite[0][0]          \n",
            "__________________________________________________________________________________________________\n",
            "block3a_project_bn (BatchNormal (None, 8, 8, 40)     160         block3a_project_conv[0][0]       \n",
            "__________________________________________________________________________________________________\n",
            "block3b_expand_conv (Conv2D)    (None, 8, 8, 240)    9600        block3a_project_bn[0][0]         \n",
            "__________________________________________________________________________________________________\n",
            "block3b_expand_bn (BatchNormali (None, 8, 8, 240)    960         block3b_expand_conv[0][0]        \n",
            "__________________________________________________________________________________________________\n",
            "block3b_expand_activation (Acti (None, 8, 8, 240)    0           block3b_expand_bn[0][0]          \n",
            "__________________________________________________________________________________________________\n",
            "block3b_dwconv (DepthwiseConv2D (None, 8, 8, 240)    6000        block3b_expand_activation[0][0]  \n",
            "__________________________________________________________________________________________________\n",
            "block3b_bn (BatchNormalization) (None, 8, 8, 240)    960         block3b_dwconv[0][0]             \n",
            "__________________________________________________________________________________________________\n",
            "block3b_activation (Activation) (None, 8, 8, 240)    0           block3b_bn[0][0]                 \n",
            "__________________________________________________________________________________________________\n",
            "block3b_se_squeeze (GlobalAvera (None, 240)          0           block3b_activation[0][0]         \n",
            "__________________________________________________________________________________________________\n",
            "block3b_se_reshape (Reshape)    (None, 1, 1, 240)    0           block3b_se_squeeze[0][0]         \n",
            "__________________________________________________________________________________________________\n",
            "block3b_se_reduce (Conv2D)      (None, 1, 1, 10)     2410        block3b_se_reshape[0][0]         \n",
            "__________________________________________________________________________________________________\n",
            "block3b_se_expand (Conv2D)      (None, 1, 1, 240)    2640        block3b_se_reduce[0][0]          \n",
            "__________________________________________________________________________________________________\n",
            "block3b_se_excite (Multiply)    (None, 8, 8, 240)    0           block3b_activation[0][0]         \n",
            "                                                                 block3b_se_expand[0][0]          \n",
            "__________________________________________________________________________________________________\n",
            "block3b_project_conv (Conv2D)   (None, 8, 8, 40)     9600        block3b_se_excite[0][0]          \n",
            "__________________________________________________________________________________________________\n",
            "block3b_project_bn (BatchNormal (None, 8, 8, 40)     160         block3b_project_conv[0][0]       \n",
            "__________________________________________________________________________________________________\n",
            "block3b_drop (Dropout)          (None, 8, 8, 40)     0           block3b_project_bn[0][0]         \n",
            "__________________________________________________________________________________________________\n",
            "block3b_add (Add)               (None, 8, 8, 40)     0           block3b_drop[0][0]               \n",
            "                                                                 block3a_project_bn[0][0]         \n",
            "__________________________________________________________________________________________________\n",
            "block4a_expand_conv (Conv2D)    (None, 8, 8, 240)    9600        block3b_add[0][0]                \n",
            "__________________________________________________________________________________________________\n",
            "block4a_expand_bn (BatchNormali (None, 8, 8, 240)    960         block4a_expand_conv[0][0]        \n",
            "__________________________________________________________________________________________________\n",
            "block4a_expand_activation (Acti (None, 8, 8, 240)    0           block4a_expand_bn[0][0]          \n",
            "__________________________________________________________________________________________________\n",
            "block4a_dwconv_pad (ZeroPadding (None, 9, 9, 240)    0           block4a_expand_activation[0][0]  \n",
            "__________________________________________________________________________________________________\n",
            "block4a_dwconv (DepthwiseConv2D (None, 4, 4, 240)    2160        block4a_dwconv_pad[0][0]         \n",
            "__________________________________________________________________________________________________\n",
            "block4a_bn (BatchNormalization) (None, 4, 4, 240)    960         block4a_dwconv[0][0]             \n",
            "__________________________________________________________________________________________________\n",
            "block4a_activation (Activation) (None, 4, 4, 240)    0           block4a_bn[0][0]                 \n",
            "__________________________________________________________________________________________________\n",
            "block4a_se_squeeze (GlobalAvera (None, 240)          0           block4a_activation[0][0]         \n",
            "__________________________________________________________________________________________________\n",
            "block4a_se_reshape (Reshape)    (None, 1, 1, 240)    0           block4a_se_squeeze[0][0]         \n",
            "__________________________________________________________________________________________________\n",
            "block4a_se_reduce (Conv2D)      (None, 1, 1, 10)     2410        block4a_se_reshape[0][0]         \n",
            "__________________________________________________________________________________________________\n",
            "block4a_se_expand (Conv2D)      (None, 1, 1, 240)    2640        block4a_se_reduce[0][0]          \n",
            "__________________________________________________________________________________________________\n",
            "block4a_se_excite (Multiply)    (None, 4, 4, 240)    0           block4a_activation[0][0]         \n",
            "                                                                 block4a_se_expand[0][0]          \n",
            "__________________________________________________________________________________________________\n",
            "block4a_project_conv (Conv2D)   (None, 4, 4, 80)     19200       block4a_se_excite[0][0]          \n",
            "__________________________________________________________________________________________________\n",
            "block4a_project_bn (BatchNormal (None, 4, 4, 80)     320         block4a_project_conv[0][0]       \n",
            "__________________________________________________________________________________________________\n",
            "block4b_expand_conv (Conv2D)    (None, 4, 4, 480)    38400       block4a_project_bn[0][0]         \n",
            "__________________________________________________________________________________________________\n",
            "block4b_expand_bn (BatchNormali (None, 4, 4, 480)    1920        block4b_expand_conv[0][0]        \n",
            "__________________________________________________________________________________________________\n",
            "block4b_expand_activation (Acti (None, 4, 4, 480)    0           block4b_expand_bn[0][0]          \n",
            "__________________________________________________________________________________________________\n",
            "block4b_dwconv (DepthwiseConv2D (None, 4, 4, 480)    4320        block4b_expand_activation[0][0]  \n",
            "__________________________________________________________________________________________________\n",
            "block4b_bn (BatchNormalization) (None, 4, 4, 480)    1920        block4b_dwconv[0][0]             \n",
            "__________________________________________________________________________________________________\n",
            "block4b_activation (Activation) (None, 4, 4, 480)    0           block4b_bn[0][0]                 \n",
            "__________________________________________________________________________________________________\n",
            "block4b_se_squeeze (GlobalAvera (None, 480)          0           block4b_activation[0][0]         \n",
            "__________________________________________________________________________________________________\n",
            "block4b_se_reshape (Reshape)    (None, 1, 1, 480)    0           block4b_se_squeeze[0][0]         \n",
            "__________________________________________________________________________________________________\n",
            "block4b_se_reduce (Conv2D)      (None, 1, 1, 20)     9620        block4b_se_reshape[0][0]         \n",
            "__________________________________________________________________________________________________\n",
            "block4b_se_expand (Conv2D)      (None, 1, 1, 480)    10080       block4b_se_reduce[0][0]          \n",
            "__________________________________________________________________________________________________\n",
            "block4b_se_excite (Multiply)    (None, 4, 4, 480)    0           block4b_activation[0][0]         \n",
            "                                                                 block4b_se_expand[0][0]          \n",
            "__________________________________________________________________________________________________\n",
            "block4b_project_conv (Conv2D)   (None, 4, 4, 80)     38400       block4b_se_excite[0][0]          \n",
            "__________________________________________________________________________________________________\n",
            "block4b_project_bn (BatchNormal (None, 4, 4, 80)     320         block4b_project_conv[0][0]       \n",
            "__________________________________________________________________________________________________\n",
            "block4b_drop (Dropout)          (None, 4, 4, 80)     0           block4b_project_bn[0][0]         \n",
            "__________________________________________________________________________________________________\n",
            "block4b_add (Add)               (None, 4, 4, 80)     0           block4b_drop[0][0]               \n",
            "                                                                 block4a_project_bn[0][0]         \n",
            "__________________________________________________________________________________________________\n",
            "block4c_expand_conv (Conv2D)    (None, 4, 4, 480)    38400       block4b_add[0][0]                \n",
            "__________________________________________________________________________________________________\n",
            "block4c_expand_bn (BatchNormali (None, 4, 4, 480)    1920        block4c_expand_conv[0][0]        \n",
            "__________________________________________________________________________________________________\n",
            "block4c_expand_activation (Acti (None, 4, 4, 480)    0           block4c_expand_bn[0][0]          \n",
            "__________________________________________________________________________________________________\n",
            "block4c_dwconv (DepthwiseConv2D (None, 4, 4, 480)    4320        block4c_expand_activation[0][0]  \n",
            "__________________________________________________________________________________________________\n",
            "block4c_bn (BatchNormalization) (None, 4, 4, 480)    1920        block4c_dwconv[0][0]             \n",
            "__________________________________________________________________________________________________\n",
            "block4c_activation (Activation) (None, 4, 4, 480)    0           block4c_bn[0][0]                 \n",
            "__________________________________________________________________________________________________\n",
            "block4c_se_squeeze (GlobalAvera (None, 480)          0           block4c_activation[0][0]         \n",
            "__________________________________________________________________________________________________\n",
            "block4c_se_reshape (Reshape)    (None, 1, 1, 480)    0           block4c_se_squeeze[0][0]         \n",
            "__________________________________________________________________________________________________\n",
            "block4c_se_reduce (Conv2D)      (None, 1, 1, 20)     9620        block4c_se_reshape[0][0]         \n",
            "__________________________________________________________________________________________________\n",
            "block4c_se_expand (Conv2D)      (None, 1, 1, 480)    10080       block4c_se_reduce[0][0]          \n",
            "__________________________________________________________________________________________________\n",
            "block4c_se_excite (Multiply)    (None, 4, 4, 480)    0           block4c_activation[0][0]         \n",
            "                                                                 block4c_se_expand[0][0]          \n",
            "__________________________________________________________________________________________________\n",
            "block4c_project_conv (Conv2D)   (None, 4, 4, 80)     38400       block4c_se_excite[0][0]          \n",
            "__________________________________________________________________________________________________\n",
            "block4c_project_bn (BatchNormal (None, 4, 4, 80)     320         block4c_project_conv[0][0]       \n",
            "__________________________________________________________________________________________________\n",
            "block4c_drop (Dropout)          (None, 4, 4, 80)     0           block4c_project_bn[0][0]         \n",
            "__________________________________________________________________________________________________\n",
            "block4c_add (Add)               (None, 4, 4, 80)     0           block4c_drop[0][0]               \n",
            "                                                                 block4b_add[0][0]                \n",
            "__________________________________________________________________________________________________\n",
            "block5a_expand_conv (Conv2D)    (None, 4, 4, 480)    38400       block4c_add[0][0]                \n",
            "__________________________________________________________________________________________________\n",
            "block5a_expand_bn (BatchNormali (None, 4, 4, 480)    1920        block5a_expand_conv[0][0]        \n",
            "__________________________________________________________________________________________________\n",
            "block5a_expand_activation (Acti (None, 4, 4, 480)    0           block5a_expand_bn[0][0]          \n",
            "__________________________________________________________________________________________________\n",
            "block5a_dwconv (DepthwiseConv2D (None, 4, 4, 480)    12000       block5a_expand_activation[0][0]  \n",
            "__________________________________________________________________________________________________\n",
            "block5a_bn (BatchNormalization) (None, 4, 4, 480)    1920        block5a_dwconv[0][0]             \n",
            "__________________________________________________________________________________________________\n",
            "block5a_activation (Activation) (None, 4, 4, 480)    0           block5a_bn[0][0]                 \n",
            "__________________________________________________________________________________________________\n",
            "block5a_se_squeeze (GlobalAvera (None, 480)          0           block5a_activation[0][0]         \n",
            "__________________________________________________________________________________________________\n",
            "block5a_se_reshape (Reshape)    (None, 1, 1, 480)    0           block5a_se_squeeze[0][0]         \n",
            "__________________________________________________________________________________________________\n",
            "block5a_se_reduce (Conv2D)      (None, 1, 1, 20)     9620        block5a_se_reshape[0][0]         \n",
            "__________________________________________________________________________________________________\n",
            "block5a_se_expand (Conv2D)      (None, 1, 1, 480)    10080       block5a_se_reduce[0][0]          \n",
            "__________________________________________________________________________________________________\n",
            "block5a_se_excite (Multiply)    (None, 4, 4, 480)    0           block5a_activation[0][0]         \n",
            "                                                                 block5a_se_expand[0][0]          \n",
            "__________________________________________________________________________________________________\n",
            "block5a_project_conv (Conv2D)   (None, 4, 4, 112)    53760       block5a_se_excite[0][0]          \n",
            "__________________________________________________________________________________________________\n",
            "block5a_project_bn (BatchNormal (None, 4, 4, 112)    448         block5a_project_conv[0][0]       \n",
            "__________________________________________________________________________________________________\n",
            "block5b_expand_conv (Conv2D)    (None, 4, 4, 672)    75264       block5a_project_bn[0][0]         \n",
            "__________________________________________________________________________________________________\n",
            "block5b_expand_bn (BatchNormali (None, 4, 4, 672)    2688        block5b_expand_conv[0][0]        \n",
            "__________________________________________________________________________________________________\n",
            "block5b_expand_activation (Acti (None, 4, 4, 672)    0           block5b_expand_bn[0][0]          \n",
            "__________________________________________________________________________________________________\n",
            "block5b_dwconv (DepthwiseConv2D (None, 4, 4, 672)    16800       block5b_expand_activation[0][0]  \n",
            "__________________________________________________________________________________________________\n",
            "block5b_bn (BatchNormalization) (None, 4, 4, 672)    2688        block5b_dwconv[0][0]             \n",
            "__________________________________________________________________________________________________\n",
            "block5b_activation (Activation) (None, 4, 4, 672)    0           block5b_bn[0][0]                 \n",
            "__________________________________________________________________________________________________\n",
            "block5b_se_squeeze (GlobalAvera (None, 672)          0           block5b_activation[0][0]         \n",
            "__________________________________________________________________________________________________\n",
            "block5b_se_reshape (Reshape)    (None, 1, 1, 672)    0           block5b_se_squeeze[0][0]         \n",
            "__________________________________________________________________________________________________\n",
            "block5b_se_reduce (Conv2D)      (None, 1, 1, 28)     18844       block5b_se_reshape[0][0]         \n",
            "__________________________________________________________________________________________________\n",
            "block5b_se_expand (Conv2D)      (None, 1, 1, 672)    19488       block5b_se_reduce[0][0]          \n",
            "__________________________________________________________________________________________________\n",
            "block5b_se_excite (Multiply)    (None, 4, 4, 672)    0           block5b_activation[0][0]         \n",
            "                                                                 block5b_se_expand[0][0]          \n",
            "__________________________________________________________________________________________________\n",
            "block5b_project_conv (Conv2D)   (None, 4, 4, 112)    75264       block5b_se_excite[0][0]          \n",
            "__________________________________________________________________________________________________\n",
            "block5b_project_bn (BatchNormal (None, 4, 4, 112)    448         block5b_project_conv[0][0]       \n",
            "__________________________________________________________________________________________________\n",
            "block5b_drop (Dropout)          (None, 4, 4, 112)    0           block5b_project_bn[0][0]         \n",
            "__________________________________________________________________________________________________\n",
            "block5b_add (Add)               (None, 4, 4, 112)    0           block5b_drop[0][0]               \n",
            "                                                                 block5a_project_bn[0][0]         \n",
            "__________________________________________________________________________________________________\n",
            "block5c_expand_conv (Conv2D)    (None, 4, 4, 672)    75264       block5b_add[0][0]                \n",
            "__________________________________________________________________________________________________\n",
            "block5c_expand_bn (BatchNormali (None, 4, 4, 672)    2688        block5c_expand_conv[0][0]        \n",
            "__________________________________________________________________________________________________\n",
            "block5c_expand_activation (Acti (None, 4, 4, 672)    0           block5c_expand_bn[0][0]          \n",
            "__________________________________________________________________________________________________\n",
            "block5c_dwconv (DepthwiseConv2D (None, 4, 4, 672)    16800       block5c_expand_activation[0][0]  \n",
            "__________________________________________________________________________________________________\n",
            "block5c_bn (BatchNormalization) (None, 4, 4, 672)    2688        block5c_dwconv[0][0]             \n",
            "__________________________________________________________________________________________________\n",
            "block5c_activation (Activation) (None, 4, 4, 672)    0           block5c_bn[0][0]                 \n",
            "__________________________________________________________________________________________________\n",
            "block5c_se_squeeze (GlobalAvera (None, 672)          0           block5c_activation[0][0]         \n",
            "__________________________________________________________________________________________________\n",
            "block5c_se_reshape (Reshape)    (None, 1, 1, 672)    0           block5c_se_squeeze[0][0]         \n",
            "__________________________________________________________________________________________________\n",
            "block5c_se_reduce (Conv2D)      (None, 1, 1, 28)     18844       block5c_se_reshape[0][0]         \n",
            "__________________________________________________________________________________________________\n",
            "block5c_se_expand (Conv2D)      (None, 1, 1, 672)    19488       block5c_se_reduce[0][0]          \n",
            "__________________________________________________________________________________________________\n",
            "block5c_se_excite (Multiply)    (None, 4, 4, 672)    0           block5c_activation[0][0]         \n",
            "                                                                 block5c_se_expand[0][0]          \n",
            "__________________________________________________________________________________________________\n",
            "block5c_project_conv (Conv2D)   (None, 4, 4, 112)    75264       block5c_se_excite[0][0]          \n",
            "__________________________________________________________________________________________________\n",
            "block5c_project_bn (BatchNormal (None, 4, 4, 112)    448         block5c_project_conv[0][0]       \n",
            "__________________________________________________________________________________________________\n",
            "block5c_drop (Dropout)          (None, 4, 4, 112)    0           block5c_project_bn[0][0]         \n",
            "__________________________________________________________________________________________________\n",
            "block5c_add (Add)               (None, 4, 4, 112)    0           block5c_drop[0][0]               \n",
            "                                                                 block5b_add[0][0]                \n",
            "__________________________________________________________________________________________________\n",
            "block6a_expand_conv (Conv2D)    (None, 4, 4, 672)    75264       block5c_add[0][0]                \n",
            "__________________________________________________________________________________________________\n",
            "block6a_expand_bn (BatchNormali (None, 4, 4, 672)    2688        block6a_expand_conv[0][0]        \n",
            "__________________________________________________________________________________________________\n",
            "block6a_expand_activation (Acti (None, 4, 4, 672)    0           block6a_expand_bn[0][0]          \n",
            "__________________________________________________________________________________________________\n",
            "block6a_dwconv_pad (ZeroPadding (None, 7, 7, 672)    0           block6a_expand_activation[0][0]  \n",
            "__________________________________________________________________________________________________\n",
            "block6a_dwconv (DepthwiseConv2D (None, 2, 2, 672)    16800       block6a_dwconv_pad[0][0]         \n",
            "__________________________________________________________________________________________________\n",
            "block6a_bn (BatchNormalization) (None, 2, 2, 672)    2688        block6a_dwconv[0][0]             \n",
            "__________________________________________________________________________________________________\n",
            "block6a_activation (Activation) (None, 2, 2, 672)    0           block6a_bn[0][0]                 \n",
            "__________________________________________________________________________________________________\n",
            "block6a_se_squeeze (GlobalAvera (None, 672)          0           block6a_activation[0][0]         \n",
            "__________________________________________________________________________________________________\n",
            "block6a_se_reshape (Reshape)    (None, 1, 1, 672)    0           block6a_se_squeeze[0][0]         \n",
            "__________________________________________________________________________________________________\n",
            "block6a_se_reduce (Conv2D)      (None, 1, 1, 28)     18844       block6a_se_reshape[0][0]         \n",
            "__________________________________________________________________________________________________\n",
            "block6a_se_expand (Conv2D)      (None, 1, 1, 672)    19488       block6a_se_reduce[0][0]          \n",
            "__________________________________________________________________________________________________\n",
            "block6a_se_excite (Multiply)    (None, 2, 2, 672)    0           block6a_activation[0][0]         \n",
            "                                                                 block6a_se_expand[0][0]          \n",
            "__________________________________________________________________________________________________\n",
            "block6a_project_conv (Conv2D)   (None, 2, 2, 192)    129024      block6a_se_excite[0][0]          \n",
            "__________________________________________________________________________________________________\n",
            "block6a_project_bn (BatchNormal (None, 2, 2, 192)    768         block6a_project_conv[0][0]       \n",
            "__________________________________________________________________________________________________\n",
            "block6b_expand_conv (Conv2D)    (None, 2, 2, 1152)   221184      block6a_project_bn[0][0]         \n",
            "__________________________________________________________________________________________________\n",
            "block6b_expand_bn (BatchNormali (None, 2, 2, 1152)   4608        block6b_expand_conv[0][0]        \n",
            "__________________________________________________________________________________________________\n",
            "block6b_expand_activation (Acti (None, 2, 2, 1152)   0           block6b_expand_bn[0][0]          \n",
            "__________________________________________________________________________________________________\n",
            "block6b_dwconv (DepthwiseConv2D (None, 2, 2, 1152)   28800       block6b_expand_activation[0][0]  \n",
            "__________________________________________________________________________________________________\n",
            "block6b_bn (BatchNormalization) (None, 2, 2, 1152)   4608        block6b_dwconv[0][0]             \n",
            "__________________________________________________________________________________________________\n",
            "block6b_activation (Activation) (None, 2, 2, 1152)   0           block6b_bn[0][0]                 \n",
            "__________________________________________________________________________________________________\n",
            "block6b_se_squeeze (GlobalAvera (None, 1152)         0           block6b_activation[0][0]         \n",
            "__________________________________________________________________________________________________\n",
            "block6b_se_reshape (Reshape)    (None, 1, 1, 1152)   0           block6b_se_squeeze[0][0]         \n",
            "__________________________________________________________________________________________________\n",
            "block6b_se_reduce (Conv2D)      (None, 1, 1, 48)     55344       block6b_se_reshape[0][0]         \n",
            "__________________________________________________________________________________________________\n",
            "block6b_se_expand (Conv2D)      (None, 1, 1, 1152)   56448       block6b_se_reduce[0][0]          \n",
            "__________________________________________________________________________________________________\n",
            "block6b_se_excite (Multiply)    (None, 2, 2, 1152)   0           block6b_activation[0][0]         \n",
            "                                                                 block6b_se_expand[0][0]          \n",
            "__________________________________________________________________________________________________\n",
            "block6b_project_conv (Conv2D)   (None, 2, 2, 192)    221184      block6b_se_excite[0][0]          \n",
            "__________________________________________________________________________________________________\n",
            "block6b_project_bn (BatchNormal (None, 2, 2, 192)    768         block6b_project_conv[0][0]       \n",
            "__________________________________________________________________________________________________\n",
            "block6b_drop (Dropout)          (None, 2, 2, 192)    0           block6b_project_bn[0][0]         \n",
            "__________________________________________________________________________________________________\n",
            "block6b_add (Add)               (None, 2, 2, 192)    0           block6b_drop[0][0]               \n",
            "                                                                 block6a_project_bn[0][0]         \n",
            "__________________________________________________________________________________________________\n",
            "block6c_expand_conv (Conv2D)    (None, 2, 2, 1152)   221184      block6b_add[0][0]                \n",
            "__________________________________________________________________________________________________\n",
            "block6c_expand_bn (BatchNormali (None, 2, 2, 1152)   4608        block6c_expand_conv[0][0]        \n",
            "__________________________________________________________________________________________________\n",
            "block6c_expand_activation (Acti (None, 2, 2, 1152)   0           block6c_expand_bn[0][0]          \n",
            "__________________________________________________________________________________________________\n",
            "block6c_dwconv (DepthwiseConv2D (None, 2, 2, 1152)   28800       block6c_expand_activation[0][0]  \n",
            "__________________________________________________________________________________________________\n",
            "block6c_bn (BatchNormalization) (None, 2, 2, 1152)   4608        block6c_dwconv[0][0]             \n",
            "__________________________________________________________________________________________________\n",
            "block6c_activation (Activation) (None, 2, 2, 1152)   0           block6c_bn[0][0]                 \n",
            "__________________________________________________________________________________________________\n",
            "block6c_se_squeeze (GlobalAvera (None, 1152)         0           block6c_activation[0][0]         \n",
            "__________________________________________________________________________________________________\n",
            "block6c_se_reshape (Reshape)    (None, 1, 1, 1152)   0           block6c_se_squeeze[0][0]         \n",
            "__________________________________________________________________________________________________\n",
            "block6c_se_reduce (Conv2D)      (None, 1, 1, 48)     55344       block6c_se_reshape[0][0]         \n",
            "__________________________________________________________________________________________________\n",
            "block6c_se_expand (Conv2D)      (None, 1, 1, 1152)   56448       block6c_se_reduce[0][0]          \n",
            "__________________________________________________________________________________________________\n",
            "block6c_se_excite (Multiply)    (None, 2, 2, 1152)   0           block6c_activation[0][0]         \n",
            "                                                                 block6c_se_expand[0][0]          \n",
            "__________________________________________________________________________________________________\n",
            "block6c_project_conv (Conv2D)   (None, 2, 2, 192)    221184      block6c_se_excite[0][0]          \n",
            "__________________________________________________________________________________________________\n",
            "block6c_project_bn (BatchNormal (None, 2, 2, 192)    768         block6c_project_conv[0][0]       \n",
            "__________________________________________________________________________________________________\n",
            "block6c_drop (Dropout)          (None, 2, 2, 192)    0           block6c_project_bn[0][0]         \n",
            "__________________________________________________________________________________________________\n",
            "block6c_add (Add)               (None, 2, 2, 192)    0           block6c_drop[0][0]               \n",
            "                                                                 block6b_add[0][0]                \n",
            "__________________________________________________________________________________________________\n",
            "block6d_expand_conv (Conv2D)    (None, 2, 2, 1152)   221184      block6c_add[0][0]                \n",
            "__________________________________________________________________________________________________\n",
            "block6d_expand_bn (BatchNormali (None, 2, 2, 1152)   4608        block6d_expand_conv[0][0]        \n",
            "__________________________________________________________________________________________________\n",
            "block6d_expand_activation (Acti (None, 2, 2, 1152)   0           block6d_expand_bn[0][0]          \n",
            "__________________________________________________________________________________________________\n",
            "block6d_dwconv (DepthwiseConv2D (None, 2, 2, 1152)   28800       block6d_expand_activation[0][0]  \n",
            "__________________________________________________________________________________________________\n",
            "block6d_bn (BatchNormalization) (None, 2, 2, 1152)   4608        block6d_dwconv[0][0]             \n",
            "__________________________________________________________________________________________________\n",
            "block6d_activation (Activation) (None, 2, 2, 1152)   0           block6d_bn[0][0]                 \n",
            "__________________________________________________________________________________________________\n",
            "block6d_se_squeeze (GlobalAvera (None, 1152)         0           block6d_activation[0][0]         \n",
            "__________________________________________________________________________________________________\n",
            "block6d_se_reshape (Reshape)    (None, 1, 1, 1152)   0           block6d_se_squeeze[0][0]         \n",
            "__________________________________________________________________________________________________\n",
            "block6d_se_reduce (Conv2D)      (None, 1, 1, 48)     55344       block6d_se_reshape[0][0]         \n",
            "__________________________________________________________________________________________________\n",
            "block6d_se_expand (Conv2D)      (None, 1, 1, 1152)   56448       block6d_se_reduce[0][0]          \n",
            "__________________________________________________________________________________________________\n",
            "block6d_se_excite (Multiply)    (None, 2, 2, 1152)   0           block6d_activation[0][0]         \n",
            "                                                                 block6d_se_expand[0][0]          \n",
            "__________________________________________________________________________________________________\n",
            "block6d_project_conv (Conv2D)   (None, 2, 2, 192)    221184      block6d_se_excite[0][0]          \n",
            "__________________________________________________________________________________________________\n",
            "block6d_project_bn (BatchNormal (None, 2, 2, 192)    768         block6d_project_conv[0][0]       \n",
            "__________________________________________________________________________________________________\n",
            "block6d_drop (Dropout)          (None, 2, 2, 192)    0           block6d_project_bn[0][0]         \n",
            "__________________________________________________________________________________________________\n",
            "block6d_add (Add)               (None, 2, 2, 192)    0           block6d_drop[0][0]               \n",
            "                                                                 block6c_add[0][0]                \n",
            "__________________________________________________________________________________________________\n",
            "block7a_expand_conv (Conv2D)    (None, 2, 2, 1152)   221184      block6d_add[0][0]                \n",
            "__________________________________________________________________________________________________\n",
            "block7a_expand_bn (BatchNormali (None, 2, 2, 1152)   4608        block7a_expand_conv[0][0]        \n",
            "__________________________________________________________________________________________________\n",
            "block7a_expand_activation (Acti (None, 2, 2, 1152)   0           block7a_expand_bn[0][0]          \n",
            "__________________________________________________________________________________________________\n",
            "block7a_dwconv (DepthwiseConv2D (None, 2, 2, 1152)   10368       block7a_expand_activation[0][0]  \n",
            "__________________________________________________________________________________________________\n",
            "block7a_bn (BatchNormalization) (None, 2, 2, 1152)   4608        block7a_dwconv[0][0]             \n",
            "__________________________________________________________________________________________________\n",
            "block7a_activation (Activation) (None, 2, 2, 1152)   0           block7a_bn[0][0]                 \n",
            "__________________________________________________________________________________________________\n",
            "block7a_se_squeeze (GlobalAvera (None, 1152)         0           block7a_activation[0][0]         \n",
            "__________________________________________________________________________________________________\n",
            "block7a_se_reshape (Reshape)    (None, 1, 1, 1152)   0           block7a_se_squeeze[0][0]         \n",
            "__________________________________________________________________________________________________\n",
            "block7a_se_reduce (Conv2D)      (None, 1, 1, 48)     55344       block7a_se_reshape[0][0]         \n",
            "__________________________________________________________________________________________________\n",
            "block7a_se_expand (Conv2D)      (None, 1, 1, 1152)   56448       block7a_se_reduce[0][0]          \n",
            "__________________________________________________________________________________________________\n",
            "block7a_se_excite (Multiply)    (None, 2, 2, 1152)   0           block7a_activation[0][0]         \n",
            "                                                                 block7a_se_expand[0][0]          \n",
            "__________________________________________________________________________________________________\n",
            "block7a_project_conv (Conv2D)   (None, 2, 2, 320)    368640      block7a_se_excite[0][0]          \n",
            "__________________________________________________________________________________________________\n",
            "block7a_project_bn (BatchNormal (None, 2, 2, 320)    1280        block7a_project_conv[0][0]       \n",
            "__________________________________________________________________________________________________\n",
            "top_conv (Conv2D)               (None, 2, 2, 1280)   409600      block7a_project_bn[0][0]         \n",
            "__________________________________________________________________________________________________\n",
            "top_bn (BatchNormalization)     (None, 2, 2, 1280)   5120        top_conv[0][0]                   \n",
            "__________________________________________________________________________________________________\n",
            "top_activation (Activation)     (None, 2, 2, 1280)   0           top_bn[0][0]                     \n",
            "__________________________________________________________________________________________________\n",
            "global_average_pooling2d (Globa (None, 1280)         0           top_activation[0][0]             \n",
            "__________________________________________________________________________________________________\n",
            "batch_normalization (BatchNorma (None, 1280)         5120        global_average_pooling2d[0][0]   \n",
            "__________________________________________________________________________________________________\n",
            "dense (Dense)                   (None, 100)          128100      batch_normalization[0][0]        \n",
            "__________________________________________________________________________________________________\n",
            "dense_1 (Dense)                 (None, 3)            303         dense[0][0]                      \n",
            "==================================================================================================\n",
            "Total params: 4,183,094\n",
            "Trainable params: 4,138,511\n",
            "Non-trainable params: 44,583\n",
            "__________________________________________________________________________________________________\n"
…
            "_________________________________________________________________\n",
            "conv_pw_13 (Conv2D)          (None, None, None, 1024)  1048576   \n",
            "_________________________________________________________________\n",
            "conv_pw_13_bn (BatchNormaliz (None, None, None, 1024)  4096      \n",
            "_________________________________________________________________\n",
            "conv_pw_13_relu (ReLU)       (None, None, None, 1024)  0         \n",
            "_________________________________________________________________\n",
            "global_average_pooling2d_1 ( (None, 1024)              0         \n",
            "_________________________________________________________________\n",
            "dropout (Dropout)            (None, 1024)              0         \n",
            "_________________________________________________________________\n",
            "batch_normalization_1 (Batch (None, 1024)              4096      \n",
            "_________________________________________________________________\n",
            "dense_2 (Dense)              (None, 512)               524800    \n",
            "_________________________________________________________________\n",
            "dense_3 (Dense)              (None, 3)                 1539      \n",
            "=================================================================\n",
            "Total params: 3,759,299\n",
            "Trainable params: 3,735,363\n",
            "Non-trainable params: 23,936\n",
            "_________________________________________________________________\n"
          ],
          "name": "stdout"
        }
      ]
    },
    {
      "cell_type": "code",
…
